data.pth (torch, 78783 bytes, 6 tensors)

l1.weight f4 [16, 675]
00000000: 1ddd a8be 7865 90be c40e 5e40 b884 5cbf
00000010: fe5f 7abf 785d d93d d218 9141 c566 e2be
00000020: 711d 04be 3354 813f 71ac 1fbf 2c21 c13f
00000030: 6942 1ec0 2a7e adbf 7194 b93f 2286 3abf
00000040: a20d 9ac0 4408 dcbf 8907 18be 5d79 77be
00000050: db1d 13bd 97a2 933e 21dd 46bf 5ab7 b6be
00000060: a1d3 bb3f 06e6 8f40 b5c8 90bf 13f1 60c0
00000070: 6ec4 4740 b00f ebbf ba61 02bf 64c5 1f40
00000080: dc75 eb3f 6c1a dc3f c8af b53f 37fc 89c0
00000090: 7c8c ebc0 50f0 7740 98d6 68c0 6cf9 17c0
000000a0: e0ee 74c0 b0d2 e8bd 949b e8bf fcfa 86c0
000000b0: c70d 8440 7de6 d0c0 14a9 963e e0c0 d2bd
000000c0: f829 dcbe 03df 01bf 747e c4bf 9491 cfbe
000000d0: 32ca a6bc 2b5c 9fc0 4104 87bf 8865 f8be
000000e0: a919 54be 25b7 9dc0 aa0f 01bd 822f 89be
000000f0: 1f98 313f 4835 973f cd64 a4bd a5cb 71bf
00000100: e8a7 98c0 e616 8e3e e4d2 15be 071f 28c0
00000110: 4ee0 1241 454d 05c0 5282 36c0 5e4b b73f
00000120: e33c 00bf 237b 60c0 359e b2c0 f73c 11bf
00000130: 8465 89be b1e5 b43f 6394 b2be eb41 2240
00000140: d84b 27be 550e ddbf 7b84 85bf 771e 083f
00000150: dc7e ba3e ab26 e5c0 5153 80c0 ecfa d4bd
00000160: 9a8a 83c0 7da1 94be e6f6 b5bf b86e 78c0
00000170: 8e25 fdba 088e 92bd 1f03 6c3f 1d69 97bf
00000180: 64a5 cbbe acf5 44bf 2db4 96c0 2c38 74c0
00000190: 213e d0be 5b7c 18c0 14fd b0bf 305e 35bd
000001a0: 5aed 33bf c079 7b40 8006 5040 3498 01c0
000001b0: 824f 73be af7b 3dc0 45ba 7840 1869 873f
000001c0: ee54 5f40 018e 7ebf 8cf6 2dbe 22c1 233e
000001d0: 67e7 2dbd d4a5 cb3e 8afb 93be ab3d 4e40
000001e0: 5602 013f 63de 8bbf 1521 59be d5d5 cbbf
000001f0: 1dea 2040 bed4 a43e 1b1e cfbe fd88 933f
00000200: 0e80 30bf dbe2 45bf bba9 40bd fa55 6abe
00000210: 274d 08c0 657c 9cc0 e984 14bf 2782 27c0
00000220: 1860 afbe 032a cfbf 9816 88c0 6d7d 97bf
00000230: d164 7abf fd58 efbf 19b9 7d40 a596 c7bf
00000240: aab9 7640 ac44 33bf afda 3240 7f48 94c0
00000250: 189b 6c3e 6abf acbf a812 6bbd db2a 01bf
00000260: dc3e 60be a01c 88bf f6f1 00bf 359c 16be
00000270: e725 c23e 59e5 b5bd b12d 41c0 b1c8 82bf
00000280: 89fb 9ac0 d5f0 58c0 5a91 c13f 5dec 5bc0
00000290: 9730 59c0 c5a1 91bf e3ed 0bc0 cbf6 923d
000002a0: a6d9 c43f ea77 c43f 0ba1 3cbd dd4d b7c0
000002b0: 0e5b 5cbf 1696 fabe 9513 df41 7a46 e1bf
000002c0: b966 44c0 41f9 8dc0 4c6d e940 3595 693f
000002d0: 9ad9 8b3f bc13 10bf 29ec 14c0 5976 03c0
000002e0: 1561 333f 98b3 db3c 3c22 eabe 5baa d3bd
000002f0: 09c8 18c0 fc77 f0bd 3c7e 52bf ba76 78bf
00000300: 446a b4be b284 a3c0 76bf a7be 4451 babe
00000310: d95e e9bd 525d fbbd 375b 52bf 7591 88be
00000320: ce90 8b40 0439 3d41 a55b 8540 363d 50bf
00000330: 9c9b d3bd 57de 1dc0 503c 07bf 161e 8cbe
00000340: 511a b9bd 4dc5 2941 0402 fdbf e9e3 06c0
00000350: 35f6 cbbf 3ccd 8fbf e54d 1e3d dadb fdbe
00000360: 31bc 86c0 489c 413e a27d 4bc0 ded2 90be
00000370: e842 9bbd 3474 fd40 4763 09bc bed9 3abf
00000380: c203 c3be 7156 23c0 c31b 24c0 49b4 51bd
00000390: c363 29be 1cdc 6fbf f176 94bf e651 c43f
000003a0: f758 853f 678c 51be 8d0e 07bf 86bd 27c0
000003b0: 3cf9 fc3f a938 2abf e36a e0bf 4b83 c3bf
000003c0: 8aea 8440 c05c 433f 9ae6 863f 4a2b 93c0
000003d0: 6f16 ffbd a9f0 98bd 4fed 06bf 2cf9 98c0
000003e0: 1619 503f 4646 b73b 12ce 3b3c 5ac7 23c1
000003f0: d5fa 26c0 61d9 2ac0 335b 16bf 3e1c 26c0
-0.32981196 -0.28202415 3.4696512 -0.8614001 -0.9780272 0.10613531 18.13712 -0.44219032
-0.12901856 1.010382 -0.623725 1.5088248 -2.4728034 -1.3554127 1.4498426 -0.7286092
-4.814164 -1.7190022 -0.14846624 -0.2416739 -0.035917144 0.28834984 -0.77681166 -0.3568676
1.4673959 4.496829 -1.1311251 -3.514714 3.121364 -1.8364162 -0.5093037 2.4964228
1.8395343 1.7195563 1.4194269 -4.312038 -7.360899 3.8740425 -3.6380978 -2.3745985
-3.8270798 -0.113683105 -1.8172479 -4.2181377 4.126682 -6.528136 0.2942587 -0.10290694
-0.4300077 -0.50730914 -1.535109 -0.40540755 -0.020360086 -4.980001 -1.0548173 -0.48514962
-0.20712914 -4.9286065 -0.03150908 -0.26794058 0.69372743 1.1813135 -0.08027039 -0.9445136
-4.7704964 0.27751845 -0.1463123 -2.6268938 9.179762 -2.0828412 -2.8517041 1.4319875
-0.50092906 -3.5075157 -5.5818124 -0.5673365 -0.26835263 1.4132596 -0.34878835 2.5352733
-0.16337526 -1.7269999 -1.0431055 0.53171486 0.3642491 -7.16097 -4.0101705 -0.10399422
-4.110669 -0.29029456 -1.4215972 -3.8817577 -0.001931356 -0.071559966 0.9219226 -1.1828953
-0.3977462 -0.76937366 -4.709494 -3.8159285 -0.406724 -2.38259 -1.3827233 -0.044279277
-0.70284045 3.929306 3.2503967 -2.0249147 -0.23760799 -2.960674 3.886369 1.0578947
3.4895587 -0.9943543 -0.16988581 0.15991643 -0.04245701 0.39774954 -0.28902847 3.222514
0.5039419 -1.0927242 -0.21204026 -1.5924631 2.5142891 0.3219356 -0.40452656 1.152618
-0.68945396 -0.7729928 -0.047036868 -0.2288436 -2.129709 -4.890185 -0.58015305 -2.6173189
-0.34253 -1.6184696 -4.252758 -1.1835152 -0.97810084 -1.8699032 3.9644225 -1.5592848
3.855082 -0.7002666 2.7945974 -4.6338496 0.23106039 -1.3495915 -0.05739084 -0.5045602
-0.21898979 -1.0633736 -0.50369203 -0.14708026 0.37919542 -0.08881635 -3.0184138 -1.0217496
-4.843205 -3.3896992 1.5122483 -3.4363015 -3.3935907 -1.1377493 -2.1863945 0.07175978
1.5378921 1.5349095 -0.04605202 -5.728255 -0.8607644 -0.4894263 27.884562 -1.7599633
-3.0687697 -4.4366765 7.294592 0.91243297 1.0925782 -0.5628011 -2.326914 -2.0540984
0.7007001 0.026819035 -0.45729244 -0.10335227 -2.3872092 -0.11741635 -0.8222387 -0.9705616
-0.35237324 -5.109948 -0.3276326 -0.36390126 -0.11395044 -0.12273659 -0.8217043 -0.26673475
4.3614264 11.82642 4.167437 -0.813434 -0.103324145 -2.4666955 -0.52826405 -0.27366704
-0.090382226 10.610669 -1.976624 -2.1076605 -1.5934511 -1.1234508 0.038648505 -0.49581796
-4.2104726 0.18907273 -3.179543 -0.2828588 -0.07581121 7.920435 -0.008385486 -0.729885
-0.38088804 -2.552151 -2.5641944 -0.051197324 -0.16541962 -0.93695235 -1.1598798 1.5337493
1.0417775 -0.20463715 -0.5275658 -2.6209426 1.976356 -0.66492707 -1.7532619 -1.5274442
4.1536303 0.763134 1.0539124 -4.5990343 -0.12455451 -0.07467777 -0.52705854 -4.7804165
0.8128828 0.005593094 0.011462705 -10.23617 -2.6090596 -2.6695178 -0.5873291 -2.5954738

l1.bias f4 [16]
00000000: f3f8 c4be 1d0f d63e b7a2 6ac0 5447 48bd
00000010: 31fa 5040 a6c7 07c0 4e3e 8040 8705 e3bf
00000020: 1afa fcbf c241 c13f 7a37 12c0 8dd1 41bf
00000030: 2442 0341 0d35 b5be 17b8 fcbf 694d 90c0
-0.38471183 0.41808406 -3.6661813 -0.04889615 3.2652705 -2.1215606 4.0076056 -1.7736062
-1.9763825 1.5098193 -2.284636 -0.75710374 8.203648 -0.35392037 -1.974368 -4.5094495

l2.weight f4 [16, 16]
00000000: 38f0 82bc 0d17 8f3e b77d aabc fa86 183e
00000010: fbda dc3b 2150 303f b4b8 36bb 96d0 c7bc
00000020: 95b7 f33a 18e7 2740 7048 c83c 7ead 9dbc
00000030: 6221 d7bb ae27 70bb 7c33 0f3e 0544 ebbc
00000040: 1f08 823c 12d2 5b3e b9d9 cd3c 1330 843b
00000050: 4d8f 18bd 59fb 78bc 1098 743b a384 abbc
00000060: b102 bb3e bf78 1abd a28e 4abd 7eae 0341
00000070: e9bf 783b d049 de3e c52e 06bb 9d0f 8dbc
00000080: 7c97 d0ba b98b 84bc f01d 96bd 1d8d 543f
00000090: b797 5ebd dd7e a83b d9cc 193c ed6d 6bbc
000000a0: a4f8 31bd 97f0 bfbc 6068 99bc b43b a33c
000000b0: d362 563f 83fc 25bd 5e43 3a3b 4a48 ff3f
000000c0: 5a85 463f 6e0a 94bd 6784 02bd 4f03 01bd
000000d0: 6f42 06bd 01d2 1cbd 269d aa3b 44b9 1ebd
000000e0: 5e61 643e 099d 9a3d 1187 77bc cd30 3dbc
000000f0: 384e a9bc 9a32 b6bc 8060 af40 645a 97bc
00000100: d773 0fbd a5ec ee3e 70e9 003f 79d8 b23a
00000110: 8c52 d3bc b2e8 2fbc 3707 22bc 4681 0940
00000120: f20e 01bd d569 c0bc 666b ffbd b36f 4bbc
00000130: fcad 60bc d995 cbbc f24e 60bd eceb 98bc
00000140: 4a22 84bc 2c2a 723f a88c d1bd e1c3 113c
00000150: 4775 9cbc a1fa 42bb c173 0c40 009c b3bc
00000160: 1217 cb3e bf6d 01bd 823d 42bb 0a6a b0bc
00000170: 3650 8bbd 472e afbc d52d 213f cd4c 83bc
00000180: f16d c8bb dd37 03be d1a5 5a3f 6178 b4bc
00000190: 9370 e73d e193 9fbc 1ef8 de3f 80dc 14bd
000001a0: b628 a23c cab7 76bd 2f13 8c3b d8ba 6cbc
000001b0: 6af1 053f 8988 b7bc 5586 83bd 6e46 8fbd
000001c0: c1c4 b23f 6480 40bd 6b5f 5cbd 07ac 073b
000001d0: 3526 e4bc 66ff 09bd 1ca6 7bbc d0ed 623f
000001e0: b2e1 93bc 2439 39bc 6a2a 293f 2b52 ef3c
000001f0: 9317 e03b 4dcf 12bc 24a0 a5bd caab 68bd
00000200: c7c9 9fbb 6189 4b3b b773 ebbc f533 4dbd
00000210: 7b7d dfbc d5a7 563f 5e48 073f dc80 ccbc
00000220: b2cb cc3f 3904 8bbb 7627 10bc 07be 5e3d
00000230: 015c f5bc dd9e 603f ffe1 89bb dc20 86bd
00000240: dc03 55bd 0475 0abd d5d2 23be c6ee e640
00000250: 3e88 4d3e 3255 fdbc 1247 f1bb 182b 81ba
00000260: 5658 bdbc 2b3e a6bc 0af5 c5bd 790b 723b
00000270: d221 a33d 4d2a a3bc 33db edbd 2b2e 15be
00000280: 0b30 e7bc 9925 a240 6ff8 40bc e12d e8bc
00000290: 8795 95bc 05f3 68bd e7b3 80bd 4525 83bc
000002a0: 879b 00bd 7a05 2d3f 0275 debc 9e21 253f
000002b0: eba0 b6bc c407 3dbc f1e3 953d c0db f1bc
000002c0: 3b64 d5bb 89f0 93bc 629d 95bd 2c62 243e
000002d0: d9a1 333f 95b2 2bbc 2faf 1ebc ea1f cabb
000002e0: 5677 0341 a3b2 88bc ce04 aabd b804 b43e
000002f0: 2357 12bc 298d 1fbc c3d2 c9bd e851 9dbc
00000300: 694d 6bbc d7c3 483e 3638 cebc 5923 143c
00000310: 1e5c 223f 2ef7 2a3d 4eaf 41bd 043c 52bd
00000320: 164a c5bc ef3a 063d 02b8 cc40 c057 49bd
00000330: 74d4 e5bc 07a6 c7bc d723 913f 006d 01bc
00000340: dce4 ef3b 1281 613c 61b5 ab40 c141 afbc
00000350: c8c9 913f 97f4 82bc 4939 94bc ce94 bdbc
00000360: cb7b 0abd e16b 0f3e 708b 013f 0087 aabd
00000370: de87 6f3c c5f7 fcba 0c15 24bd c9f0 99bc
00000380: 6c41 fe3d 662f 03bc 7d3b 1cbb fde9 5abd
00000390: 3a16 06bc 0c76 dc3f 0de2 debc a090 56bc
000003a0: 1d76 d8bc 8362 b73e d112 a7bc 54fd d4bb
000003b0: 143f 393f 7fa7 fdbb e8ec 5abc b19a acbc
000003c0: e4ef 71bc a04d 18bc e882 123e ae8d 52bd
000003d0: aaa9 d13b 8ef7 cd39 01ed c13b 9a94 36bc
000003e0: 83a0 adbd 6792 203e 2854 703e 0bba 03bd
000003f0: f3d5 a4bc f061 423f fc3e 78bd 0dce 3140
-0.015983686 0.27947274 -0.020811899 0.1489524 0.0067399717 0.68872267 -0.0027881088 -0.024391454
0.001859414 2.6234798 0.024448603 -0.019247767 -0.006565259 -0.0036644745 0.13984483 -0.028718958
0.015873013 0.21466854 0.025128232 0.004034051 -0.037246037 -0.015196645 0.0037322082 -0.02093727
0.3652549 -0.03771281 -0.04945243 8.230101 0.0037956184 0.4341569 -0.0020474654 -0.017219359
-0.0015914286 -0.016179906 -0.07329929 0.8302782 -0.054343905 0.0051420764 0.009387218 -0.01436947
-0.043450013 -0.023430152 -0.018726528 0.01992593 0.83744544 -0.040524017 0.0028421502 1.9943936
0.7754723 -0.07228552 -0.03186455 -0.031497296 -0.0327782 -0.038286213 0.005206722 -0.0387509
0.22302768 0.07549483 -0.015107886 -0.01154728 -0.02066718 -0.022240926 5.48053 -0.018475719
-0.035022583 0.4666492 0.503562 0.0013644836 -0.025796197 -0.010736631 -0.009889415 2.1485152
-0.031508394 -0.023487965 -0.124716565 -0.012416768 -0.013713356 -0.024851726 -0.054762788 -0.018667184
-0.016129632 0.945956 -0.10231906 0.008896799 -0.019098891 -0.0029751437 2.194565 -0.021924973
0.3966604 -0.031598803 -0.0029638712 -0.021534938 -0.068024084 -0.021384371 0.6296056 -0.016027832
-0.0061166217 -0.12814279 0.85409266 -0.022030057 0.11300769 -0.019479694 1.7419469 -0.036343098
0.019794803 -0.06023387 0.004274748 -0.014448844 0.52321494 -0.022403972 -0.06422106 -0.06995855
1.3966295 -0.046997443 -0.053801935 0.0020701902 -0.02785025 -0.033690833 -0.015359428 0.88644123
-0.018051956 -0.011305127 0.66080344 0.029213985 0.0068387478 -0.008960557 -0.08087185 -0.056804456
-0.0048763487 0.0031057226 -0.0287417 -0.05009838 -0.027281513 0.8384984 0.528448 -0.024963789
1.5999663 -0.0042424467 -0.008798471 0.054380443 -0.029951097 0.87742406 -0.004207849 -0.06549236
-0.052005634 -0.033803 -0.15998395 7.216647 0.20071504 -0.030924413 -0.0073632086 -0.0009854762
-0.02311341 -0.020293316 -0.09665878 0.0036933108 0.07965435 -0.019917632 -0.116140746 -0.14568393
-0.02822115 5.0670896 -0.011777981 -0.02834219 -0.018259777 -0.056872386 -0.06284314 -0.016008982
-0.031398322 0.6758648 -0.027155403 0.6450442 -0.022293529 -0.011537496 0.07318867 -0.02952373
-0.0065121925 -0.018059032 -0.07305409 0.16053075 0.70168835 -0.010479589 -0.009685322 -0.0061683552
8.216635 -0.016686743 -0.08301698 0.3515985 -0.008931908 -0.009738245 -0.09854653 -0.019204095
-0.014361718 0.19605957 -0.025173288 0.009041631 0.6342181 0.041739635 -0.047286324 -0.051326767
-0.024083178 0.032771047 6.397462 -0.04915595 -0.028055407 -0.02437116 1.1339062 -0.007899523
0.0073209833 0.013763683 5.365891 -0.021393659 1.1389704 -0.01598577 -0.018093722 -0.023142245
-0.033809464 0.14005996 0.5060339 -0.083265305 0.014619796 -0.0019299915 -0.040059134 -0.018791573
0.12414822 -0.008006906 -0.0023839169 -0.053445805 -0.00818401 1.7223525 -0.027207399 -0.013096005
-0.026423508 0.35817346 -0.020394715 -0.0064999256 0.72361875 -0.0077409144 -0.013362147 -0.021069856
-0.014766667 -0.009295851 0.1430775 -0.051404648 0.0063983994 0.0003928509 0.0059181456 -0.011143828
-0.08477881 0.15680848 0.23469603 -0.032159846 -0.02012155 0.7593069 -0.06060694 2.7782013

l2.bias f4 [16]
00000000: 42e0 b4be 1b2b b1be 0ac0 efbe 8620 a7be
00000010: 41a9 24bf 581c 18bf bd9a d3be aa24 97bf
00000020: 57eb acc0 ce58 dabc 25a7 0bbe 09de a2be
00000030: b27c 43bf 9aee 72bf 6f30 f0be 796f 16bf
-0.35327345 -0.346032 -0.46826202 -0.32642 -0.6432076 -0.5941825 -0.41328993 -1.1808064
-5.403728 -0.026653673 -0.1363798 -0.31810024 -0.76362145 -0.9489533 -0.46911952 -0.58763844

l3.weight f4 [226, 16]
00000000: 16bc 1cc2 fb59 72bf b635 89bf 131c 903f
00000010: 4bca bb3e f7cb 0dc1 ffe7 dcbe 409c a1bf
00000020: 087c 3ec2 5d08 8bc0 4728 27c2 0cfc 83bd
00000030: a4cf 18c0 3693 953f def5 76be 1a2c 7ec1
00000040: 467d b5c2 a2cd 0f3f aa9f 40c0 d42b c4c2
00000050: e726 bcc2 8470 e2be cd6f 38bf 0120 b3c2
00000060: 79a9 c6bf 33c3 ea3c 4ab0 49bd f5bc eebd
00000070: 0d23 18bf 078a fc3e d4cd 1dc0 107f 27bf
00000080: c398 2dc0 27ce d2c2 64b2 d9c2 22e9 39be
00000090: 148e 83c2 78a4 9bc2 e26d 99c2 5afc 4bc0
000000a0: 7d69 d2c1 77f3 f8c2 4851 a8c2 bf25 96c2
000000b0: 6e36 a2c2 2b80 5ac2 00ee 46bf 9a9c d4c2
000000c0: 29f1 7f3f 4de2 223f 0322 f3c1 95dd 61bf
000000d0: 003a 60c2 9108 48c2 d6a1 46c2 2c24 78c2
000000e0: cae7 5abe 8445 78c2 e8b8 8e3f 9712 9dbf
000000f0: 2908 afc1 aae6 8abf 775f efbd 61b3 bbbe
00000100: e8af 11c2 14ff 1f3f 6c8a 6ac0 ec5d acc2
00000110: ca81 59c2 ef73 23c2 5e30 86c2 0039 7ec2
00000120: 5c57 24c2 aeac 663f 82fa 813f fed2 1fbf
00000130: f8af 6fc2 08b0 75c2 404d bcc2 a37c 45c2
00000140: 49b7 933e 6c1e 1a3f 8fd3 68bf f605 9ec2
00000150: 72d5 2ec2 3522 8ac1 7288 99c2 c07d 76c2
00000160: 79c7 0bc0 5ae6 8ec2 6c24 943f be33 87c1
00000170: 5506 76c2 ce46 91c2 d294 14c2 3cbf ecbe
00000180: 6783 823f 4fba 343f 1627 84c2 4c1d 07c2
00000190: 4673 a9c1 6f85 cec1 d2c8 adbf 8cf0 37c2
000001a0: f243 4bbe 4999 2a3e c492 933f 4649 f0bd
000001b0: 3118 273f 1ca1 8b3f 00aa 87bd a22a dbbe
000001c0: 3538 92c2 8126 003f 507a d4c1 1a8d acc2
000001d0: 1a28 6cbf c341 81c2 63fa 85c2 a1ea 90c2
000001e0: f356 3ec0 0cac 8fc2 fefd fbc0 7d15 54c2
000001f0: 8951 87c2 a586 94c2 f1e7 a3c2 8c99 2bbf
00000200: f0d8 bebf 3e68 ffbe 2b0e 2abf 781d d3c2
00000210: 2fd3 84c2 a9c7 8ec2 8837 2ec1 3677 93c2
00000220: 4645 32c2 2a38 73c1 5904 dfc2 642e c2c2
00000230: dd13 8fc2 1528 94c2 bed3 06bf 448f e2be
00000240: 65b6 783f 3b26 46bf 084f 82c2 da6a 07c2
00000250: 8c2d b9c1 1a4d b4c2 3fb1 aac2 9cac 2ec2
00000260: 7d83 28c2 ea98 46c2 4d40 513f a255 d1c2
00000270: aa4b 92c2 3645 9dc2 4e5a 29be f3c1 87bf
00000280: 2871 473f 90ff 17c2 8025 44c0 4db6 dc3d
00000290: 3a7b 8dc2 c96c 33c2 3044 3ac1 d8a3 66c0
000002a0: 2396 71bf 4e6b 25c1 6708 abc0 7b00 4cbe
000002b0: 113a 20c2 b31f aac2 f30b 1fbe 3f8f afc2
000002c0: c397 49c2 9e93 a43e 3915 d2be c4e4 95c1
000002d0: 0fcc dfc1 7c91 74c1 0e6b 14c2 5587 46c2
000002e0: abad e4be deb1 f7c1 e6bf 06c2 08d6 833d
000002f0: 7f2d 41c2 58e1 56c2 8b94 20c2 f30e 68be
00000300: 7d88 8b3f edf7 4cc1 bb2d d9be 3a5a 97c1
00000310: 6b23 923e 0910 44c2 285e 09c2 1269 babf
00000320: eaaa 19c2 b8bb 833f 2820 6e3f cbd6 08bf
00000330: 88ad 67c2 b740 12c2 4349 24bf 8a15 70be
00000340: ebad 573f 0685 e0c0 13c3 73bf 5c8a ccc2
00000350: 6cc5 91c2 7b1a b9c2 112f 31c0 7839 8ac2
00000360: 9748 94c1 70c8 56c1 b44b 34be 2cb5 d2c2
00000370: 9d68 98c2 1e9a 90c2 6959 2fbe b6d7 6bbf
00000380: dc82 7bc2 fd2a 7cc2 50e0 65c2 8d17 83c2
00000390: 4606 6d3e 8258 ab3e 8f9a a2be 5acf dabf
000003a0: 65d3 b9bf 0692 2fc2 e353 863f ff41 8ec2
000003b0: 3852 7ec2 5ef6 7e3f 21f0 71c2 2da6 3fc2
000003c0: 6b0d a5c2 442a c4c2 4c5b 80c2 cbaa b3c2
000003d0: fc02 2bbe 4f6d 52c2 5f06 51c2 0da7 a9c0
000003e0: 6e2a 29c2 52cc b7c0 af55 b5c2 cb00 c5c2
000003f0: 8f65 7bc2 2da9 88c2 eeb2 abc2 da85 a1c2
-39.183678 -0.9466855 -1.0719516 1.1258568 0.36677775 -8.862296 -0.4314575 -1.2625809
-47.621124 -4.344771 -41.789333 -0.064445585 -2.3876734 1.168555 -0.24117228 -15.885767
-90.744675 0.56173146 -3.0097451 -98.0856 -94.07598 -0.44226468 -0.72045594 -89.56251
-1.5520469 0.028657531 -0.049240388 -0.116571344 -0.59428483 0.49324057 -2.4656878 -0.65428257
-2.7124488 -105.40264 -108.84842 -0.1815534 -65.7775 -77.82123 -76.714615 -3.1872773
-26.301508 -124.47552 -84.15875 -75.07372 -81.10631 -54.625164 -0.7770691 -106.30586
0.99977356 0.6362656 -30.391607 -0.8822873 -56.05664 -50.008366 -49.658043 -62.035324
-0.21377483 -62.067886 1.1150179 -1.2271298 -21.878984 -1.0851643 -0.1168813 -0.36660293
-36.421783 0.62498593 -3.6646986 -86.18344 -54.376747 -40.863216 -67.09447 -63.555664
-41.08531 0.9010724 1.0154574 -0.62431324 -59.921844 -61.421906 -94.15088 -49.371716
0.28850773 0.6020267 -0.9094781 -79.01164 -43.708443 -17.266703 -76.766495 -61.622803
-2.1840498 -71.449905 1.1573615 -16.900265 -61.506184 -72.63829 -37.145332 -0.4623965
1.0196351 0.70596784 -66.07634 -33.77861 -21.181286 -25.815153 -1.357691 -45.98491
-0.19850138 0.16660036 1.1529164 -0.11732726 0.6527129 1.0908542 -0.06624222 -0.42805964
-73.10978 0.5005875 -26.559723 -86.27559 -0.9224869 -64.62844 -66.98904 -72.45826
-2.974057 -71.83603 -7.874755 -53.020985 -67.65925 -74.26298 -81.95301 -0.6703117
-1.4909954 -0.49884218 -0.6642787 -105.557556 -66.41247 -71.38996 -10.888557 -73.732834
-44.56765 -15.201212 -111.50849 -97.09061 -71.538795 -74.078285 -0.5266684 -0.44249928
0.9715331 -0.77402085 -65.15436 -33.854347 -23.14724 -90.15059 -85.34618 -43.668564
-42.128407 -49.64933 0.8173874 -104.66725 -73.14778 -78.63518 -0.16538355 -1.0606064
0.7790704 -37.999573 -3.0647888 0.107769586 -70.74068 -44.856236 -11.641647 -3.6037502
-0.94369715 -10.338697 -5.3447757 -0.19922058 -40.056705 -85.06191 -0.15531902 -87.77978
-50.398205 0.32143873 -0.41031817 -18.736702 -27.974638 -15.285519 -37.104546 -49.63216
-0.44663748 -30.96185 -33.6874 0.064373076 -48.29443 -53.720062 -40.14506 -0.22661953
1.0901028 -12.810529 -0.42417702 -18.919056 0.28542647 -49.01566 -34.34195 -1.4563315
-38.41691 1.0291662 0.93017817 -0.5345275 -57.919464 -36.563198 -0.6417429 -0.23445717
0.8424975 -7.016238 -0.95219535 -102.27023 -72.88559 -92.55172 -2.7684977 -69.11224
-18.535444 -13.423935 -0.17607003 -105.35385 -76.20432 -72.30101 -0.17123951 -0.92126024
-62.877792 -63.04198 -57.469055 -65.546 0.23146924 0.33465964 -0.31758544 -1.7094529
-1.4517637 -43.8926 1.049435 -71.1289 -63.58029 0.99594676 -60.4845 -47.91228
-82.52621 -98.08255 -64.178314 -89.83358 -0.16700357 -52.606747 -52.25622 -5.301642
-42.291435 -5.7436914 -90.66735 -98.50155 -62.84918 -68.33042 -85.84947 -80.76143

l3.bias f4 [226]
00000000: 9bc9 2cc1 6d58 4fc0 d091 7740 f2b1 16c1
00000010: b775 5abf 3ab2 1bc0 50bf 64c1 d837 0340
00000020: 2dbf e33e 04fe 5ebf 9136 25bf 8c99 adc0
00000030: 5247 33c1 3ee7 5abf c33e 71c0 1a13 9040
00000040: 90bd a940 17fc a8c0 44af 97c1 a6f5 09c1
00000050: f11b 2c40 d6fe 89c0 3c53 38bf 2c74 383f
00000060: 5e80 9240 e9ca 3740 8b93 57c1 473f 97c0
00000070: ea75 2cc1 2c62 0b40 f6c3 e9c0 0f1e aebf
00000080: 8168 983f 0086 31c1 5a40 b4bf bcb7 8ec0
00000090: 1ac0 13c1 c5f6 1dc0 6525 ccc0 c584 60c1
000000a0: 1cc9 18c0 ddd1 ebbe 8033 0ec1 fbb2 2240
000000b0: 794a 6040 94d1 abc0 cd2f 92c0 5b45 d0c0
000000c0: 9375 3240 fff3 82bd 930a a4c0 f433 30c1
000000d0: a31b 79c0 f127 47c1 d323 92c1 a721 7abe
000000e0: c709 a23f 6b42 4dc1 bb3f 38c0 dd06 24bf
000000f0: a288 9e40 ec43 2d40 f294 7cbf 4722 b8c0
00000100: 6ed6 7040 0a9a 7ec1 e0bf c9c0 76ca 18c0
00000110: 70ec ffbf 417b 90bf 3759 6ec0 d727 5dc1
00000120: eaf8 4d3e d91e c63f 3be3 2fc0 5444 463f
00000130: b7c0 5e40 572a 56c0 8239 aabf ffb2 59c0
00000140: 29d3 b640 748c 49c1 5fbc cec0 a1b3 13c1
00000150: ffda 75c0 7905 c1c0 d0de a3c0 d39b 0fc0
00000160: cf0c 4bc0 67b0 20c0 0dbd 58bf 3087 96c1
00000170: 4761 62c1 9145 85c1 56ee 623e dcb8 aec0
00000180: 09af 91c0 c339 ecc0 402b aec0 8f45 23bf
00000190: f49a 5040 65cb cfbe c43a 11bf 553f cac0
000001a0: e020 f3bd bd4b 1440 2294 39c0 2f4b bcbf
000001b0: a04d 2d3f 174d 13c0 8026 21c0 989f f0c0
000001c0: 1bc8 62c0 1c44 81c0 0836 6fc0 ba11 80bf
000001d0: 790b 26c1 f855 18c0 83fd abbe d925 39c1
000001e0: d566 8dbf e7a2 e8bf dc82 f1bf 4673 edbf
000001f0: b9b0 b73d 2592 f8c0 7f47 f5c0 4f0e 7dc1
00000200: c9fe b9c0 34dd 153f 8fad 8bc0 d820 2f40
00000210: 7777 5ec1 881e 00c1 3bdc a6c1 6827 34c1
00000220: 1a05 53c0 15dc 1dc1 9a7c 15c1 7982 0cc1
00000230: 8bdc b1c1 6f8e 96c1 7f6a 36bf 4c5e bec1
00000240: 97ce eac0 5e6d 89c1 aeb7 14c1 12c1 a1c1
00000250: 8891 dfc0 7fbf 48bf a563 0140 35b2 a0c1
00000260: 1b34 0a3f 7b14 1b3e c2de 0b40 0745 b340
00000270: 7f6d aabf 4c90 d5be 2c1a 61c0 a235 57c0
00000280: aea8 48c0 e583 d7c0 a606 ab40 ea58 63c0
00000290: f0ad 2ec1 e1eb d7c0 ac11 c7c0 482f bfc1
000002a0: d9e6 49c1 6f9d eec0 598e 0ec1 c863 2ac1
000002b0: c0ab 35c0 a935 1ec1 1e8f e7bf 7d59 28c1
000002c0: bc61 0a40 23be 4fc1 fa67 4dc0 576c 8e3d
000002d0: 677f b5c0 bc31 97c0 1250 08c0 12fe 7fbf
000002e0: df38 c0c0 8490 a2c0 eafd babf 6050 50be
000002f0: 88c4 00c0 e1be 0940 5fb5 7ac1 87f8 dac0
00000300: 15a0 c03f 9701 4bc0 0ed4 c0bf 236c 64c0
00000310: 290c 05c1 f475 b1c0 0c52 4dc0 fceb fac0
00000320: 6d89 1bc1 082e 49c0 331b c6c0 0c27 ecc0
00000330: e1c3 8040 783f 53be 4af8 6d40 42ba 3ec1
00000340: d6c7 21c1 2a18 13c1 49fa 15c1 2476 84c1
00000350: be7e 14c1 0af0 79c0 7b69 66bf e467 47c1
00000360: ed1e 3bc0 5404 16c1 dc85 d8bf a0a3 2dc1
00000370: 3d08 16c1 1758 0a3f 5e0f 8fc0 21ae 4ac0
00000380: db32 0940 4258 37bf
-10.79922 -3.239772 3.8682747 -9.418444 -0.8533587 -2.432753 -14.296707 2.0502834
0.44481793 -0.8710635 -0.64536387 -5.4249935 -11.204912 -0.855091 -3.7694557 4.5023317
5.30439 -5.2807727 -18.960579 -8.622473 2.6892054 -4.312358 -0.72002006 0.72052264
4.57817 2.8717597 -13.473521 -4.7264743 -10.778788 2.177867 -7.305171 -1.3602923
1.1906892 -11.095215 -1.4082139 -4.4599285 -9.2344 -2.4681866 -6.379565 -14.032414
-2.3872747 -0.4605855 -8.887573 2.542174 3.5045455 -5.3693333 -4.568335 -6.5084662
2.7884262 -0.06394195 -5.126291 -11.012684 -3.8923118 -12.447251 -18.267492 -0.244269
1.2659234 -12.828715 -2.8788898 -0.6407297 4.954179 2.7072706 -0.9866477 -5.7541842
3.7630877 -15.912607 -6.3046722 -2.3873572 -1.999403 -1.1287614 -3.7241952 -13.822227
0.20114484 1.5478164 -2.748244 0.7744801 3.4805124 -3.3463342 -1.32988 -3.40155
5.7132764 -12.59679 -6.4604945 -9.231355 -3.8414915 -6.031918 -5.120949 -2.2438858
-3.1726568 -2.5107667 -0.8466347 -18.81601 -14.148749 -16.658968 0.2216123 -5.460066
-4.5526166 -7.382051 -5.4427795 -0.63778013 3.2594576 -0.40584865 -0.56730294 -6.320231
-0.11871505 2.3171227 -2.8996663 -1.4710444 0.6769657 -2.3015802 -2.5179749 -7.5194817
-3.5434635 -4.039564 -3.7376728 -1.000541 -10.377801 -2.380247 -0.33591852 -11.57174
-1.1047007 -1.8174714 -1.886806 -1.8550804 0.08969254 -7.76784 -7.6649776 -15.815993
-5.8123517 0.58540654 -4.3649364 2.7363796 -13.904166 -8.007454 -20.857534 -11.259621
-3.2971864 -9.866231 -9.34292 -8.781854 -22.232687 -18.819548 -0.7125625 -23.796043
-7.3377185 -17.178402 -9.294844 -20.219273 -6.986515 -0.784172 2.0217068 -20.087015
0.53985757 0.15144531 2.185471 5.602176 -1.3314666 -0.41711652 -3.5172224 -3.3626485
-3.1352954 -6.7348504 5.3445616 -3.552302 -10.917465 -6.747544 -6.220907 -23.898087
-12.618859 -7.456718 -8.909753 -10.649361 -2.8386078 -9.888101 -1.8090551 -10.521848
2.1622152 -12.98392 -3.2094712 0.06954258 -5.671802 -4.724821 -2.129887 -0.99997056
-6.0069423 -5.080141 -1.4608738 -0.2034316 -2.0119953 2.1522753 -15.66928 -6.842838
1.5048853 -3.171972 -1.5064714 -3.5691001 -8.315469 -5.5456486 -3.2081327 -7.8413067
-9.721051 -3.1434345 -6.19082 -7.3797665 4.023911 -0.2062968 3.7182794 -11.920473
-10.111288 -9.193399 -9.373605 -16.557686 -9.280943 -3.9052758 -0.900047 -12.462864
-2.9237626 -9.376057 -1.6915851 -10.8524475 -9.377011 0.54040664 -4.470626 -3.166878
2.143729 -0.71619046
